model_state/decoder_relu1_1.pth (torch_old, 7498 bytes, 2 tensors)

1.weight f4 [3, 64, 3, 3]
00000000: 396a 75bc 610e 9c3c 50fa 6bbb 097b 873c
00000010: cf0d 96bb 891f 6fbb abf9 593c 286f 96bc
00000020: e7ef f4bb e461 fa3b aa0d 0abd 56fa 093d
00000030: 8de5 76bc 95f1 7dbb 57cd 043c e0c7 bf3b
00000040: 4257 9cbb f00d 10bc fe3f 1b3d d88b bbbc
00000050: 58c7 cdbb c2d3 d1bc 1d9f ff3b b601 333c
00000060: 3507 23bc 7eca 1d3d 1055 bbbc 46bc 583c
00000070: 4ddd 10bc d3a7 95bc 154e 4ebc 9934 953c
00000080: 856c f63b 0ff5 1fbc c503 4a3c 2c29 36bc
00000090: 4ee9 e53b fc23 093b 3493 2dbc 9f5d 4dbc
000000a0: a9fe d43c 13bd d93c 18b8 91bb 38fe bf3c
000000b0: de0e c3bc 0918 8f3c 64af 643b 9e88 43bc
000000c0: b3e1 313c 0f38 07bd 1498 6f3c f31e 02bc
000000d0: 6bdb 0f3a c0f9 093c 4c68 e2bb a8c4 b5bc
000000e0: 3c69 4a3c 4862 e03b d9d5 97bc 72b9 bbbb
000000f0: 9fe8 ff3a a152 3ebb 383c 25bb dd57 c7ba
00000100: 8ea9 b63b cbd3 5c3c 468d cabb b00e 84bc
00000110: bba1 14bc 4ea4 003d 59f8 50bc c490 c13b
00000120: 771a 463c 0000 e43b 60b2 eebc 00c6 913c
00000130: 0b3f aebc 6fba b63c ef98 02bc 6935 113c
00000140: 7637 2e3c 6c96 29bc 10cb 903c c2af 70bc
00000150: 6b6f 063c e316 3cbc 8a7b f93b df19 2cbc
00000160: 55d9 4a3c 496e 91bb e22e 5abc 0c5d 363c
00000170: fc63 a7bb a9f7 d43c 3bf9 9bbc 0a99 bcbb
00000180: 8d35 afbc e67a d23b c1f9 9b3c 7733 b23c
00000190: f5bc efbb dd89 90bc 15e1 e1bc dfd5 b43c
000001a0: db26 073a 6c7b 7a3c 8e3a 8cbc a696 213c
000001b0: 162b 2cba 0dbb c03b 929b a53b be2a 79bc
000001c0: 06a3 90bc 44ff 583c 0e3c a8bb 332e 973c
000001d0: e528 10bc 92ec 4b39 07aa 833c fde7 cbbb
000001e0: e2fc ff39 d526 733c 464d 92bc 36d0 13bc
000001f0: 7a37 62bc adcd 923c 27b0 0e3c 695b 863c
00000200: 9d79 adbb b978 88bc fd4c a9bc 28a8 483c
00000210: e56f 703c 5453 813b 0de2 86bc cfeb d2bc
00000220: 19e4 693c 6fd5 d6bb d1d8 053c de65 9a3c
00000230: ef3b 753b 52b5 4a37 7ad8 2abc 0e29 7bbc
00000240: f2fe 663b 6b0e 193b e22d adbc 4684 ca3c
00000250: 2b7c d3bc 97a5 c63c b0a3 053c fecd b4bc
00000260: 11f3 c33b 0b46 1c3c 6027 0dbb a89a 523b
00000270: c852 92bc 9cd5 b93c 7983 cbbb 95e5 2cbc
00000280: db0e 523b aa61 a7b8 7ee6 bd3c ca38 d03b
00000290: a69b bbbb a2d3 32bd febb 64ba cbce 373c
000002a0: 3c9e ae3c 3b1f 033c 14ba 9cbc 60b0 473c
000002b0: f4f4 66bb f19c 0f3d 0c26 c9bb 5d73 dbba
000002c0: 84e6 9bbb c273 abbb 9633 83bb c541 df3b
000002d0: 1385 8a3b 9d47 60bc 488a ee38 74d6 e23b
000002e0: 6f74 233b 9f30 873b 5385 bd3b 23be ddbb
000002f0: ee35 bdba 0b35 7abb 5ea4 5dbc ca51 0e3b
00000300: e3ba 25bc 3fab d43c 8332 84bb 280f 24bc
00000310: baaf ac3b 8a49 e63b 106b e63b a128 b7bc
00000320: dd40 903c 5cd5 abbc 2763 7d3c 5b64 0b3c
00000330: ab07 31bb 2fd7 84bb 6e3f fe3b 27d6 e33a
00000340: 4f53 44bc 889b 77bb 87ac 8e3b fd40 bcbc
00000350: 64b8 f53c 6069 de3c c763 11bc 30fb 8cbc
00000360: 646b 35bc 28b3 24ba 482d 883c df76 d43c
00000370: 64ae 79bc aef7 c1bc 4c77 c6bc ad73 e93c
00000380: 7231 dc39 1b37 3c3c 05dc 763b 71ee 59bc
00000390: 7274 b93b 69fe 433c e4f1 d6bb ee3e 863c
000003a0: affb 6dbc dd05 103b fd39 773b 1663 98bc
000003b0: c8a5 073c 0e3a 833c 25ad 2f3c 2fb0 f93b
000003c0: bcda b2bb 4db6 bebb 292f 80bc c207 093c
000003d0: 7e14 193c c6c1 a5bc 79ce 33bc b50b 213b
000003e0: 5c5b c73b 7d78 c63c d7e2 31bc ba98 e3ba
000003f0: 7f45 c2bb 821e e5bb 1986 6a3b b40f 0c3d
-0.014978939 0.019049825 -0.0036007352 0.01653816 -0.004579283 -0.0036487302 0.013304154 -0.01836355
-0.0074748877 0.007641064 -0.033704437 0.033686005 -0.015069378 -0.003874873 0.008105597 0.0058526844
-0.004771144 -0.008792385 0.037902825 -0.022893831 -0.006279867 -0.02561367 0.00780095 0.010925701
-0.009950449 0.03852319 -0.02286771 0.013228482 -0.008841825 -0.018268501 -0.012591858 0.018213557
0.0075202608 -0.009763016 0.01233 -0.011118215 0.0070163375 0.002092599 -0.010594178 -0.012534528
0.026000338 0.026579415 -0.0044469945 0.02343665 -0.0238108 0.017467516 0.003489458 -0.011934428
0.010857034 -0.033012446 0.014623661 -0.007941949 0.0005487713 0.008421361 -0.006909406 -0.0221885
0.012354191 0.0068476535 -0.018534588 -0.005728894 0.0019524283 -0.002904095 -0.0025212895 -0.001520868
0.0055744117 0.01347823 -0.006181392 -0.016120285 -0.009071763 0.031406693 -0.012754523 0.00590715
0.012091271 0.006958008 -0.02913779 0.01779461 -0.021270296 0.022305695 -0.0079710325 0.008862832
0.01063334 -0.010350805 0.017674953 -0.014690341 0.008205275 -0.011480066 0.007613604 -0.010504215
0.012380918 -0.004438196 -0.013316842 0.011130583 -0.0051083546 0.025997 -0.01903974 -0.0057555484
-0.02138784 0.006423342 0.01903999 0.021753056 -0.0073162266 -0.017643863 -0.027573148 0.022074638
0.0005155631 0.015288215 -0.017117765 0.009862578 -0.00065676996 0.005881673 0.005053946 -0.015207944
-0.01765586 0.013244454 -0.005134112 0.018454647 -0.0087988125 0.00019447718 0.016072286 -0.0062227235
0.00048825803 0.014840801 -0.017859112 -0.009021809 -0.013807172 0.01792034 0.00870899 0.01640101
-0.0052940384 -0.016659128 -0.020666594 0.012247123 0.014675115 0.003946701 -0.016465211 -0.025747208
0.014275574 -0.006556205 0.008169369 0.018847402 0.0037419756 1.2082355e-05 -0.010427589 -0.015329612
0.0035247174 0.002335454 -0.021140043 0.024721276 -0.025816044 0.024248881 0.008156702 -0.022070881
0.0059799035 0.009538184 -0.0021538362 0.003213564 -0.017861739 0.022684865 -0.006210741 -0.0105527835
0.0032052312 -7.981372e-05 0.023181196 0.006354426 -0.005725342 -0.04365886 -0.0008725523 0.011218737
0.021315686 0.008003051 -0.019131698 0.012188047 -0.0035241218 0.03506178 -0.0061385687 -0.0016742755
-0.004757704 -0.0052323053 -0.0040039523 0.0068132603 0.0042272895 -0.013688949 0.00011374481 0.0069225375
0.0024941226 0.004125669 0.0057837158 -0.006767051 -0.0014435628 -0.0038178589 -0.013527958 0.002171623
-0.010115358 0.025960563 -0.004034342 -0.010013379 0.0052699717 0.0070278095 0.007031806 -0.02235824
0.017609054 -0.020975761 0.015465534 0.008507813 -0.0027012627 -0.004053972 0.0077590263 0.0017382548
-0.011982753 -0.0037781913 0.004354063 -0.022980208 0.02999515 0.027149856 -0.008873886 -0.01720962
-0.011072967 -0.00062828 0.016623154 0.025935588 -0.015239332 -0.023677673 -0.024226807 0.028497541
0.0004199851 0.011487748 0.0037667763 -0.013301478 0.0056596333 0.011962512 -0.0065595973 0.01638743
-0.014525338 0.002197615 0.0037723773 -0.018601935 0.008279271 0.016018894 0.010722433 0.0076198797
-0.005458204 -0.005820072 -0.015647488 0.008363666 0.009343265 -0.020234 -0.01097452 0.0024573628
0.006083889 0.024227375 -0.0108573055 -0.0017364242 -0.0059286947 -0.006992162 0.0035785495 0.034194663

1.bias f4 [3]
00000000: 6cd6 e03e b0e1 d23e eac9 b93e
0.4391359 0.4118781 0.3628686
